CNN/model/cnn_fashion.pt (torch_old, 111277 bytes, 8 tensors)

conv1.weight f4 [10, 1, 3, 3]
00000000: 5e74 a0be 55f1 e0be 1940 3e3e e1d5 91be
00000010: b4dd 59be 9312 633e 950d 0d3f dd44 163f
00000020: 6b44 bcbe 1a1f 04be 8df3 703f 4077 833e
00000030: e802 7fbf a762 513f b046 013f 1505 b5bf
00000040: 25cd 8f3e c5e6 52be 0c57 033e 104d 51bf
00000050: b95f 3d3f 2b01 9abe 9d69 67bf 662b 943f
00000060: fe3c 8abe e335 5fbf 60c8 8f3f 349c 87be
00000070: b980 17bf e1e1 f0be 43d9 f5be c20a 21bf
00000080: ce5c 51bf fd2e 0abf a35b 53bf 4fe0 98be
00000090: 7020 74be 1c10 013e 8dec 903e b5e1 9bbe
000000a0: 33a2 9ebe 917a 733d 9ad6 7cbe 03b6 0abe
000000b0: 5990 54be 4f3c 443e 04d7 5e3f f78e 723f
000000c0: e589 02be 1582 7f3e f075 ff3e 92fd db3c
000000d0: 4755 4d3f 7ff2 6a3e 4eb8 26be 61f4 2bbe
000000e0: 046c 48be 5799 f9bd a11e 68be 1299 1c3e
000000f0: 0e6f 5dbd e183 ab3e e6b9 603d bc9a 67bd
00000100: 5116 fabe 4bc8 50be bc3f 80bf 87c0 9fbf
00000110: 64ad 30bf f3db 06bf c88a 9ebf 7320 7abe
00000120: 0423 9b3e 2508 f13e 530d 91bd 7be6 153f
00000130: d1f5 94bc b91c 0e3e 9dcb ee3e d242 c33d
00000140: 295c 4a3e a0c1 1cbf 8356 1cbe 26ff b7be
00000150: e632 3d3e b5cc c8be c44d 4a3c 13e5 8a3e
00000160: 3d3e 0c3f 77d3 b93e
-0.3133878 -0.43934122 0.18579139 -0.2848349 -0.2127598 0.22175054 0.5509885 0.5869883
-0.3677095 -0.1290249 0.9412163 0.25676918 -0.9961381 0.81791157 0.50498486 -1.4142176
0.280862 -0.20595844 0.12826174 -0.81758213 0.73974186 -0.30079016 -0.9039553 1.1575744
-0.26999658 -0.871916 1.1233025 -0.2648636 -0.5918079 -0.47047332 -0.4801732 -0.6290704
-0.81782234 -0.5397795 -0.825617 -0.29858634 -0.23840499 0.12603801 0.28305474 -0.30445638
-0.30983123 0.05944306 -0.24691239 -0.13545994 -0.2075819 0.19163631 0.8704684 0.947494
-0.12747915 0.24951966 0.49894667 0.02685431 0.8020825 0.22944067 -0.16281244 -0.16792442
-0.19572455 -0.121874504 -0.22667934 0.15292767 -0.054060988 0.33499053 0.054864787 -0.05654405
-0.4884515 -0.20388906 -1.001945 -1.248063 -0.69014573 -0.52679366 -1.2386103 -0.24426441
0.30300152 0.47076526 -0.070826195 0.5855481 -0.01818362 0.13878144 0.4663972 0.09534229
0.19761719 -0.6123295 -0.15267377 -0.3593685 0.18476447 -0.3921868 0.012347642 0.27127895
0.5478247 0.36294147

conv1.bias f4 [10]
00000000: 422c d0bc 5513 e5bc c33f 91bc 9793 eb3e
00000010: 5307 01be b95e 75bc 7d33 0f3c 762b 4c3f
00000020: 8b10 7abb 6401 8e3c
-0.025411729 -0.02796332 -0.0177306 0.4601104 -0.1260045 -0.014976197 0.008740303 0.79753816
-0.0038156833 0.017334647

conv2.weight f4 [20, 10, 3, 3]
00000000: 0c5e 8d3d 0b3b 9fbc 3b5f b93d 6271 3d3c
00000010: b14b b3bd daa4 993c f7d6 963d d57f 14bd
00000020: a7eb bd3d 8d35 1a3d ec08 aabd a609 8bbd
00000030: 023e d9bb c715 923d 89d8 d23d 76d4 7f3d
00000040: 23a4 f53c 7296 523d beaa fe3d 4eee 34bd
00000050: 3631 933c ee22 103d 4693 d6bd 775b e5bd
00000060: b2a8 8a3d 3d5a d6ba ebf1 883c 0927 ed3c
00000070: 7d5f 51bd 88ba 2cbc e8cf 973c e446 3ebd
00000080: c5ae 8dbd 7d90 ab3d db21 ce3d b9ba a23d
00000090: c37d 78bd cc02 34bd dcdd 0fbd c8f8 a63c
000000a0: 4eaa 90bd 8cfa 5dbd 11e0 a7bc 1deb 8e3d
000000b0: 6134 c9bd 9f0b a4bd 24cc ca3d f9d4 793b
000000c0: 0ab7 e83c eab7 9bbd ca42 c23b 4706 07be
000000d0: 7860 7ebc 1918 21be 9b5c 783d 9068 50bc
000000e0: 6760 a7bd 28ea d0bc 47e6 85bd 1481 1d3c
000000f0: ae55 bfbd 02f2 eb3c f9e8 d43d f9e9 2d3d
00000100: cafd f03c 2d38 89bb 1b3d 7e3c d51d 99bc
00000110: e989 29bd 9dd3 17bd b448 7a3b 294e 5cbd
00000120: 4d9d 64bb 0a19 d53d 511e d33d f915 163d
00000130: 8e59 c2bd faad aebd 2564 f2bd 73cc 833d
00000140: 7096 f23b 0707 09bd 2fb1 ac3d f67d 8bbd
00000150: 7e46 82bc 4656 ab3d 8a93 8fbd 5824 f2ba
00000160: 4f59 c83d cf98 063d dcb7 bfbd 346b 613d
00000170: 4d2c 7a3c 58c2 f5bb 2327 c4bd dcef cabd
00000180: 9469 3c3d d41e cdbd 79ea e1bc bbb4 543d
00000190: a239 843d 82fb 9e3d c6d9 093d 8cdd c5bc
000001a0: d736 583d 82fd aa3d 821b a63c e749 76bd
000001b0: 054a bc3d dc7e 223d feb2 da3c f973 e8bc
000001c0: e590 77bc 7a5e b7bd 8db3 25bc fb2b 9e3d
000001d0: a0c2 fa39 df85 67bd c9b7 efbc 5dba 803d
000001e0: 323a 97bd a0b8 a83d 5dd1 98bd 2c3f ac3d
000001f0: 2de2 c53d ef80 9c3d 611e 863d 8239 b83d
00000200: 5f5b 2bbd 7e09 e3bc 0fbd cbbc ebb6 24bc
00000210: b80f 8a3d 9d22 c1bd c93d 993d 7424 b4bd
00000220: c9a0 81bd e95d b0bc 9157 c23b 559b a2bd
00000230: 1382 adbd 9c0a 70bc 815f 86bd 831b 2e3d
00000240: 87fc a53c 956d 223d dd40 583d ce30 d6bc
00000250: b3d9 633d 5eba efbc ad10 8d3d ab1c bd3d
00000260: d2a8 77bd f3b7 37bc b439 31bd 29e7 68bb
00000270: 73c5 4c3d 8405 2d3d 2b42 5b3c f8b8 93bd
00000280: a07b 64bd c990 77bd 70cc a1bd 2d15 753c
00000290: ecfa a63d b04a b33d fcd2 a13b 3862 443c
000002a0: a884 7bbd eb8a 3f3d 136f acbd 989f e23c
000002b0: b6f3 c63d 15cb 62bd 3dc2 8f3d 72ec 1abd
000002c0: f031 bebd d9d0 82bd 9578 9c3c fcbb 9fbd
000002d0: 8c2a 31bd 6201 413e 8abd e03d 3c74 e83c
000002e0: f2dc f4bc 67fa 59bd fc47 07bd f1d0 b6bc
000002f0: 1a7e a8bc 431c 2cbb e17d 80bd 9329 923e
00000300: 5bd4 6cbd 5aa2 20bd b210 85bd ecb6 1fbe
00000310: a2f9 a4bd 2fff 05be d3fc f43c 4136 f03d
00000320: 2da2 953e 8f49 6a3d 0b18 1a3e d7d2 383d
00000330: 2675 a73c 1589 c23d 8c93 39bd 0c81 1f3d
00000340: 964a ae3e 639d bc3e 9fb4 4e3e a0f3 b43e
00000350: b49e f4bd 1e46 42be 2691 03bc 24d5 7dbe
00000360: 62a3 873d 5555 1a3d 560a b0bd 8ca6 35bd
00000370: de69 3f3d 1280 653c 7f87 9d3d cf7b babd
00000380: 376d 9fbd f7f5 943e 84fa 30bf a6cb 273e
00000390: 6f20 ac3d 378b 9ebe 047f 8f3e 4be5 623e
000003a0: 245d 69be 34b9 613e 43d7 2abd 900d 123d
000003b0: 581d 153d bb69 c63d 8ecd 1d3e e8b6 02bd
000003c0: 61ba fe3d 81f9 b3bd 81e9 a7bd e74d a93c
000003d0: 8a71 023f 1c8c 203f c772 0c3e 1592 ac3e
000003e0: 9c1c 84bc d808 77be 07df a93c 713f 90be
000003f0: 26f5 e93e b7a5 adbe 540b 713d f091 8c3e
0.06902704 -0.019437334 0.09051367 0.011562677 -0.08754671 0.018755365 0.0736522 -0.036254723
0.09273463 0.037648726 -0.08302483 -0.0678895 -0.0066297064 0.0713306 0.10295207 0.062458478
0.029985493 0.051413007 0.1243491 -0.044172578 0.017967802 0.03518956 -0.10477309 -0.11199086
0.06770457 -0.0016353797 0.016716918 0.028949277 -0.051116455 -0.010542519 0.018531755 -0.046454325
-0.069181 0.08377168 0.10065051 0.07945771 -0.06066681 -0.04394798 -0.03512369 0.0203823
-0.07063733 -0.05419402 -0.020492585 0.06978438 -0.098244436 -0.08010029 0.09902218 0.0038121326
0.028407592 -0.07603438 0.005928372 -0.13185988 -0.01552593 -0.15731849 0.06063519 -0.012720242
-0.08172684 -0.02550228 -0.065380625 0.009613294 -0.09342514 0.028801922 0.103959985 0.04245946
0.029417891 -0.004187605 0.015517498 -0.018690983 -0.041391287 -0.037067045 0.0038190307 -0.053785477
-0.0034883798 0.104051664 0.10308517 0.03664205 -0.094897375 -0.08529277 -0.11835507 0.0643548
0.0074031875 -0.033453967 0.084322326 -0.068111345 -0.015902754 0.08366065 -0.07010563 -0.0018473966
0.09782659 0.032860573 -0.0936124 0.055033877 0.015269351 -0.007499974 -0.09577777 -0.09909031
0.045999125 -0.100156456 -0.027577626 0.05193017 0.06456305 0.07762815 0.03365495 -0.024153493
0.052786674 0.08349134 0.020276789 -0.060129073 0.091938056 0.039671764 0.026696678 -0.028375613
-0.015110229 -0.08953567 -0.010113609 0.07723232 0.00047828723 -0.056524154 -0.02926244 0.06285546
-0.07384147 0.082383394 -0.07461808 0.084104866 0.0966228 0.0764178 0.06548763 0.08995344
-0.041835185 -0.027714487 -0.024870424 -0.010053377 0.06741279 -0.0943043 0.07482488 -0.087960154
-0.063294955 -0.021529155 0.005930849 -0.079397835 -0.08472075 -0.014650967 -0.06561185 0.042506706
0.020262016 0.039655287 0.052796233 -0.026146319 0.055627536 -0.029263671 0.06887946 0.092339836
-0.060463734 -0.0112132905 -0.04326792 -0.0035538173 0.04999299 0.04224159 0.013382475 -0.07213014
-0.05578196 -0.060440812 -0.079003215 0.014958662 0.08153328 0.0875448 0.0049384814 0.011986308
-0.061405808 0.046763342 -0.08419623 0.02766399 0.09714453 -0.055369455 0.0701947 -0.037823148
-0.092868686 -0.06387491 0.019100467 -0.07799527 -0.043253466 0.18848184 0.10973652 0.028375737
-0.029890511 -0.053217318 -0.033027634 -0.022316428 -0.020567942 -0.0026261962 -0.062740095 0.28547344
-0.057819705 -0.03921733 -0.06497325 -0.15597123 -0.08055426 -0.13085626 0.029905712 0.11729098
0.29225293 0.057199057 0.15048234 0.045122948 0.020441603 0.094988026 -0.045306727 0.038941428
0.3404128 0.36838827 0.20186089 0.3534212 -0.11944333 -0.1897206 -0.008030212 -0.24788338
0.0662296 0.037679035 -0.085957214 -0.044348285 0.046731822 0.014007585 0.076918595 -0.09105646
-0.07784503 0.29093906 -0.69132257 0.1638628 0.08404624 -0.30965587 0.28026593 0.22157781
-0.22789437 0.22043306 -0.041709196 0.035657465 0.036404938 0.09688135 0.15410444 -0.031912714
0.12437893 -0.087878235 -0.08198834 0.02066703 0.50954497 0.6271379 0.13715659 0.33705202
-0.016126923 -0.24124467 0.02073623 -0.28173402 0.45694846 -0.33915493 0.058848694 0.2745509

conv2.bias f4 [20]
00000000: 7ac8 4cbd 6b4c babd 6268 8ebe 95d9 b53b
00000010: 9c7e 92bd 3e61 4d3f b1c7 4bbe 97fa 4fbe
00000020: 8134 023e 2e79 40bc bb2f 2c3d 8f85 b03d
00000030: 7fbf 93bd aa12 86bd 416a d5bd 89ba 793e
00000040: e563 be3e 16fa d3bd 7532 963e dbf9 57be
-0.049995877 -0.09096607 -0.27814013 0.0055496194 -0.07153055 0.80226505 -0.19900395 -0.20310436
0.12715341 -0.0117476415 0.042037707 0.08619224 -0.07214259 -0.06546529 -0.10420657 0.24387564
0.37185588 -0.103504345 0.2933537 -0.21091406

fc1.weight f4 [50, 500]
00000000: fa6f fcbc 23f4 1fbd 8412 213d 6f86 393d
00000010: a15c a4bc 9555 fbbc 2aa6 b7bc 6957 4bbc
00000020: 537b f23c 11e4 0cbd 231a c8bc c3e8 223d
00000030: 7504 c23b c055 2abc 091c 18bd fa0f 263d
00000040: 3773 58bc a9b4 193d a87a 03bd b67b 023d
00000050: ee82 983c b819 e0bc 9583 d73b 792d 7cbc
00000060: 8402 5fbd a9f7 b0bc 9517 bf3c 0dda 25bd
00000070: a03f 4dbc c29c cabc 957e 41bc 28bc 973c
00000080: b385 6ebc e740 00bd 0153 e5bc 9ef3 9e3b
00000090: 53ac 2b3d 19d0 4739 14f7 943a fdc6 12bc
000000a0: e48d 233d 3e41 ba3c ff8a af3c 6a9c 9c3c
000000b0: f058 a93c d217 2f3d e867 a73c 0f7a f83b
000000c0: 1955 923c 61f7 273b 0675 e7bd db67 5bbb
000000d0: 2aa1 f4bb 75cb ab3c 94c1 b4bd 744c 79bc
000000e0: 571b 56bc 9716 09bd 4bad ecbc 5673 863d
000000f0: 0dba 9b3c 5a70 4f3c 585a 89bd ad1b 9f3c
00000100: a371 f23d 2592 39bc c690 debd 9f55 4b3d
00000110: dc76 813c 43ab 46bd 7a07 cebd ee23 e7bc
00000120: 0b3a 8e3c 51a5 7bbd 6a2e 843d d875 f2bc
00000130: 98e9 f53c 385a f3bc fbea b63c ae2b d8ba
00000140: 8753 b93c 2b1c 253d 69e5 2bbd 240d e8ba
00000150: 128b 0bbd 2637 8c38 c8f3 a6bc b007 fb3c
00000160: f0ca 993c 2e14 a1ba 527c 083d 6d49 333d
00000170: 67a1 ffba c34a 88bc 28a0 483c ddaa 0f3c
00000180: ba8a 04bc 3ce0 23bd 354a 7ebc c6ad 61bc
00000190: 7b51 9dbd 364b 4ebd 905b 5c3d dfa8 783d
000001a0: ff6c b93d e842 9b3d 9153 963c d11d 123e
000001b0: 7ce4 aa3c 7bd5 0a3e 8875 2f3e 9e88 a0bd
000001c0: 57d0 7ebc 5991 f73d d3e3 a33d 336d 0cbc
000001d0: f409 c8bd 5daa 963d d43b 0b3d 9506 f0bd
000001e0: 4758 febc e191 c5bd 3e42 203e 8dbb b4bd
000001f0: a97e e1bc 82bb d5bd abcc 22be f24f 02be
00000200: 5b9e 2dbd 4c18 9f3c b067 43be 8970 cebd
00000210: 83a2 96bd 185c 1cbd 7e48 c7bd 75c5 843b
00000220: 3b89 d3bc ef9c 59bd 728c cfbc 5078 903d
00000230: 02c2 893d cf40 153d 6839 d1bd e992 5dbd
00000240: a613 cb3d 66de 263d 9790 2fbd 0ada 07be
00000250: 6a13 fcbd 6e19 12be 566f d73c fa03 0e3d
00000260: 7aeb 5e3d 1635 a4bb 0659 903d bf25 18bb
00000270: 6e69 853c 1c9a 8ebd d7c0 a13c 1918 b0bd
00000280: 05b1 563d 649e 9fbb 1cd4 fc3b 63da 293d
00000290: b09a 823c 77c1 df3b 6ddc babc 9a9f 733d
000002a0: f346 183c 4d33 713c 9fa2 a33d 738f 4d3d
000002b0: cc14 e2b9 a16b 13bd be21 99bd d5b5 1abd
000002c0: c81b 9fbc 5382 d0bc 534b bfbc 01eb fdbc
000002d0: dfce 73bd b5f4 91bc 7250 2d3d c653 0d3d
000002e0: c1ea 3c3a 4aeb 94bd 1ac7 6abd baed 983c
000002f0: 81fc 053d 0a8a 7b3d 8a98 dcbd 09ed c1bc
00000300: d83c d43c 087d 9c39 9964 173d cc5b 87bd
00000310: a1de 60bd 0ed9 003d b07b a8bd b6d4 c6bc
00000320: 8d99 59b9 25f2 11bd 3633 6bbc 30fa d7bc
00000330: cd44 863d 33ea 8cbd 9d51 68bd e273 ba3c
00000340: fe8a e1bb 1292 eabb 3e07 57bc 6dd2 5e3d
00000350: 5aa7 e93c 29b5 5abc c58f f8bc 6bc6 d83d
00000360: 3f27 fe3b 18c5 d3bc b71b 053d b993 c13c
00000370: a580 9c3d 1715 0ebc 4295 58bd 4d0c 3abd
00000380: 14cc 373c 79e3 18bd 2331 f03c eba4 bb3c
00000390: b11b adbc 5a30 b53c 4dc9 11bd 4600 fc3c
000003a0: 8617 fabc 5f86 1fbc a7fe f2bc 8713 1dbd
000003b0: 5da2 4b3c f714 853c d4e3 fb3c 908a 9cbc
000003c0: 4f8c 2a3c beb2 cfbc 498f 7d3b 7852 c6bc
000003d0: dbba 993c 75e0 a7bc 8abd 21bd f738 2e3d
000003e0: b377 0ebc e982 34bd 29f2 a7bd 9db3 cfbd
000003f0: 5054 02be 9c84 74bd b75e fd3d ad40 0ebe
-0.030815113 -0.039051186 0.0393243 0.04529422 -0.0200637 -0.030680457 -0.0224181 -0.012410977
0.029599821 -0.03439719 -0.024426525 0.03977276 0.0059209415 -0.010396421 -0.03713611 0.04054258
-0.013211063 0.037525807 -0.032099396 0.03185626 0.01861712 -0.027356014 0.006576965 -0.015391701
-0.05444576 -0.021602469 0.023326674 -0.040491153 -0.012527376 -0.024732951 -0.011809965 0.018522337
-0.014558244 -0.031311896 -0.02799368 0.004850819 0.041912388 0.00019055641 0.0011365139 -0.008958575
0.03993024 0.022736188 0.021428583 0.019117553 0.020672292 0.042747326 0.020435289 0.00758291
0.017862843 0.0025629627 -0.11301617 -0.003347865 -0.0074655013 0.02097104 -0.088259846 -0.015215982
-0.013068042 -0.03346881 -0.028891226 0.06564967 0.019009614 0.012661064 -0.06706685 0.019422377
0.11838081 -0.0113263475 -0.10867457 0.0496422 0.015803747 -0.04850317 -0.1006002 -0.028215375
0.017361661 -0.061436955 0.06454165 -0.029597208 0.030018613 -0.029706106 0.022328844 -0.001649251
0.022622837 0.040310066 -0.04196683 -0.0017704112 -0.034068175 6.6859924e-05 -0.020379916 0.030643314
0.018773526 -0.0012289339 0.033321686 0.043771196 -0.0019503058 -0.016637212 0.0122452155 0.008768764
-0.008089716 -0.04000877 -0.015520622 -0.013774341 -0.07681557 -0.050364695 0.05379826 0.060707923
0.090539925 0.07581121 0.018350394 0.14269187 0.020860903 0.13557999 0.17134678 -0.07838558
-0.015552602 0.1208827 0.080024384 -0.008570957 -0.097675234 0.07356713 0.033992603 -0.117200054
-0.031047953 -0.09646965 0.1565027 -0.08824835 -0.027526217 -0.10436155 -0.15898387 -0.12725809
-0.042387348 0.019420765 -0.19082522 -0.10080058 -0.073552154 -0.038173765 -0.09730624 0.004051859
-0.025822273 -0.05312818 -0.025335524 0.07054198 0.06726457 0.03643876 -0.102160275 -0.054095183
0.09915857 0.04073944 -0.0428625 -0.13266769 -0.123083904 -0.14267513 0.026298206 0.03467176
0.054423787 -0.005011211 0.0704823 -0.0023215858 0.016285624 -0.06962988 0.019745274 -0.08598346
0.052414913 -0.0048711766 0.007715715 0.041468035 0.015942901 0.0068284827 -0.022810185 0.05947838
0.009294259 0.014721704 0.07990002 0.050185632 -0.00043121574 -0.035991315 -0.07477139 -0.037771065
-0.019422427 -0.025452768 -0.023351347 -0.030995848 -0.05952346 -0.01781688 0.042313047 0.03450372
0.0007206612 -0.0727144 -0.057318784 0.018668044 0.03271151 0.06141094 -0.10771282 -0.023672597
0.025907919 0.00029847794 0.03696117 -0.06609306 -0.054899815 0.031457 -0.082267165 -0.02427135
-0.00020751935 -0.035631318 -0.014355471 -0.026364416 0.065560915 -0.068806075 -0.056718457 0.022760335
-0.0068830242 -0.007158526 -0.013124285 0.054399896 0.028522182 -0.013348856 -0.030341992 0.1058472
0.0077561433 -0.025850818 0.032497134 0.02363001 0.076417245 -0.00867202 -0.05287672 -0.045421887
0.01121809 -0.03732631 0.029320305 0.022905787 -0.021131368 0.022117782 -0.035592366 0.03076185
-0.030528795 -0.009736626 -0.029662443 -0.0383487 0.012428847 0.016245348 0.030748285 -0.01910904
0.010409429 -0.025353786 0.003869014 -0.024209246 0.018765857 -0.020492772 -0.0394874 0.042534795
-0.008695531 -0.04407016 -0.08200485 -0.101416804 -0.12727475 -0.05969678 0.12371581 -0.1389186

fc1.bias f4 [50]
00000000: 72d6 823d 78b8 8c3b 6044 d13c c691 263d
00000010: 761a ac3d 0687 2a3e 6530 4e3b 6a12 013d
00000020: 2b74 8a3d a668 44bd 98f4 03bd 0954 923d
00000030: 8107 ae3d 37da a63b eaec b33d 47d3 9ebc
00000040: 5c47 b13c 2925 bcbd 4d3b 6fbc e39c ddbd
00000050: b86b 0abe ab8b 993d 283c 293d 4e72 fc3a
00000060: 4982 96bc 6dcd 1d3c b04a e5bc edfc 833d
00000070: 122f c23d 0751 9a3d cc88 bcbc 762b e03d
00000080: 1280 833d 1ac4 9fbc 3f4c 543d fbed 653a
00000090: 07d8 9c3d 79f3 db3d f2c6 523e 53a0 8b3d
000000a0: f3f3 cf3d c3ea f83b 0cae 0bbd 1951 2bbd
000000b0: 1ae9 dabc 3aa4 283d d8af 163c 858a 823c
000000c0: ad4a d13d 3b2a cb3c
0.063885584 0.0042944513 0.025545299 0.040666364 0.084034845 0.1665307 0.003146195 0.0315117
0.067604385 -0.047951363 -0.032215685 0.07144935 0.08497525 0.005091931 0.08785422 -0.019387854
0.021640472 -0.09186775 -0.014601541 -0.108209394 -0.13517654 0.07497343 0.041317135 0.001926014
-0.018372672 0.009631497 -0.027989715 0.06444726 0.09481634 0.07534986 -0.023014449 0.109457895
0.06420912 -0.019502688 0.051830526 0.00087711186 0.076583914 0.10739798 0.20583704 0.06817689
0.101539515 0.007596345 -0.03410153 -0.041825388 -0.02672248 0.041172244 0.009197198 0.015935192
0.102193214 0.02480041

fc2.weight f4 [10, 50]
00000000: ae4a 22be 8077 f63d 44fb 023e a24b d63e
00000010: e88b 70be fcc6 a13e f847 0dbe 1886 2fbd
00000020: ed65 84be 7cc5 4bbd ce61 dc3d cb5f b6be
00000030: f90e ff3d bb8f aa3e c0c7 c43e 1081 79be
00000040: 87c0 af3e 51a8 fcbc 0546 9cbe 3658 593e
00000050: f23c 5cbd da5c 9d3d 3713 983e f664 21bc
00000060: 61bc 943d de2b b83d e29f 4bbe 825b 81be
00000070: 0299 c73e f3c1 f33e a126 e43d 575a d23e
00000080: f3e7 6bbe e2ec bf3e 62b8 4a3c f618 0c3e
00000090: 4799 2bbe a1ff 263e d66d 913e 0310 c8bd
000000a0: 8ad8 feba afef 923d fc49 44be 4abf a33e
000000b0: 8f72 b43d 754f 793e df6e 713e bb51 f73d
000000c0: 3bd4 503e 9ea4 a3bc 6e02 55be b347 e83d
000000d0: 8c0d 11be 5b1e 10be 1077 e7bd d440 9ebe
000000e0: 9a33 9d3e 7551 78bd 4ec6 aebe 6438 c63e
000000f0: 3caa 52bd 48f5 d6be 8316 94bd c41d 4e3e
00000100: 2fca 64be 6bbe dabe 600c 5ebe d3f3 c63e
00000110: a04e ccbe e97e 9b3e 46b2 bf3e f259 a33d
00000120: 2f4f bc3d c8c6 e43e c526 a3bd e6a3 423e
00000130: cd2c 41be 599f d93e a7cd aabe 059d debd
00000140: 13fe 813d 3d90 e13d 38e2 433e 1a63 9e3e
00000150: 75dd 7cbe 691c f43e fab3 ea3e 0abe 77be
00000160: 6f95 29be ae99 12be 7239 5cbe 5c6b 90bd
00000170: 009a a9be 37b7 90be a51f 99be 4938 82be
00000180: 467a b83e 8f99 4fbd a176 02be 3c91 363f
00000190: 3539 34be a276 853d 8e5e 9cbe fae5 23be
000001a0: 62f3 bcbe 2615 8d3e 0a02 a3be cd5b f6bd
000001b0: bb8f aebe 0e54 3abe 4e7a 9cbd f80d 923e
000001c0: 6fd7 bd3e f40f ab3e d9dc a5be f528 3dbe
000001d0: 2648 2a3e 23ae 3abe b59a a5be 1328 a0be
000001e0: 2a6f 823b b142 523e 3bc2 993e ec80 e1bc
000001f0: a5cd af3e 166a aabe 58a3 d23e f1a7 74be
00000200: 3301 2d3e e50b 0d3f 2df3 e63d 9e31 11bd
00000210: 8706 44be 6d0e 65be 259a cdbe 459d 1fbd
00000220: da34 6d3e ddb0 a43e da6d a73e 65be 6d3e
00000230: 4aef aebe 9225 a33d a2cd 993e ebc9 10be
00000240: 1714 923e 0350 903e 52b8 063e cc9f f7bd
00000250: cbb9 cb3e 6ce8 99bc 4876 59be 2259 57bd
00000260: 13d6 a93e 217c 44be 9bd8 253c d4a5 853e
00000270: b318 873e bfb1 30be 2c4c 563e c7e8 a53e
00000280: d0d4 14be 97c6 983e 68ae b63e 5f41 7a3e
00000290: fd5e b1be c83e c9bd afe7 07be 2162 be3e
000002a0: 6e33 2b3e 240e 873e 6d75 3ebe 9497 3b3e
000002b0: dc5e 923e 7897 bf3e 1d7c fbbd 79d4 563e
000002c0: 042e b7be b938 b6be dbdd 6cbe 4a57 1bbe
000002d0: e16b d2bd 9385 b83e 918d 983e f72a a33e
000002e0: 0d75 d7be c1aa 87be 8171 a9be b58b aa3e
000002f0: 0c7a 823e 2aa3 313e 83ad d3be e777 28ba
00000300: 534c 95be e695 b9bd fbfc db3d 902c 9bbe
00000310: 902c a9be 79c8 ab3d 2af8 78be 6cca 81be
00000320: b6c2 c6bd aeea f53d 5f19 b1bd 291a 7dbe
00000330: 4148 bbbd 4d02 4fbe 768b 92be 1fa0 5c3d
00000340: b45b 00bf 9d34 433e 782d 653d 5844 aa3e
00000350: e91f bf3e e463 a13e 4e00 b2be 6e22 5e3e
00000360: 8bdc b0be 73aa 81be a1fb 293e e808 8e3e
00000370: 6e52 a23e 10ba aabe 463b a53e 3471 c83e
00000380: a7d5 c33e 53b4 283e 8e9f bc3e 8380 a6be
00000390: 7d06 81be eeab cabd f9d4 f7bd 2dcf 7bbe
000003a0: dbfb 403e 6024 72be 5793 c5be c279 45be
000003b0: 05c7 8b3e 181d 3dbe 7861 31be 40ad e8be
000003c0: 12a8 f0be 96f7 cdbb 1490 a63e 6b21 9c3e
000003d0: 6200 863e df74 993e 17cf c0be 108f 1e3d
000003e0: 6b07 293e 13fa d2bd 2bca 1c3f 66d7 61bd
000003f0: c699 a4be d5a9 e9be dace 503e 231e 383e
-0.158488 0.120345116 0.12791163 0.41854578 -0.2349087 0.31597126 -0.13796985 -0.04285249
-0.25859013 -0.049748883 0.10760842 -0.3561996 0.12454028 0.33312783 0.38433647 -0.2436564
0.34326574 -0.030841978 -0.3052217 0.21225056 -0.05376906 0.07683726 0.2970216 -0.009850731
0.07262493 0.08992742 -0.19885209 -0.25265127 0.38983923 0.4760891 0.111401804 0.4108455
-0.230377 0.37485415 0.012373062 0.13681397 -0.1675769 0.16308452 0.2840411 -0.09768679
-0.0019443196 0.07174622 -0.19168848 0.3198188 0.08810913 0.24346717 0.2357745 0.12076136
0.2039346 -0.019975957 -0.20801708 0.113418005 -0.14165324 -0.1407408 -0.11302006 -0.30908835
0.3070343 -0.06062456 -0.3413567 0.38714898 -0.05143188 -0.4198401 -0.07230856 0.20128542
-0.22342752 -0.42723402 -0.21684408 0.38857898 -0.39903736 0.30370262 0.374407 0.0797614
0.091947906 0.44682908 -0.07966379 0.19007835 -0.18864746 0.42504385 -0.33360025 -0.10869793
0.06347289 0.110138394 0.19129264 0.30934983 -0.24693854 0.47677925 0.45840436 -0.24193588
-0.1656091 -0.14316437 -0.21506289 -0.07051727 -0.33125305 -0.28264782 -0.29906955 -0.25433567
0.36030787 -0.050683554 -0.12740566 0.7131536 -0.17599948 0.06516768 -0.3054089 -0.16005698
-0.36904436 0.27555197 -0.31837493 -0.12029228 -0.34094033 -0.18196127 -0.07640515 0.28526282
0.37078425 0.3341061 -0.32395056 -0.18472655 0.16629085 -0.1823049 -0.32344595 -0.31280574
0.003980537 0.20533253 0.30031 -0.027527295 0.34336582 -0.33284062 0.41140246 -0.2389219
0.16894989 0.55096275 0.11276851 -0.03544771 -0.19143115 -0.22368784 -0.40156665 -0.038968343
0.23164693 0.32166186 0.32700998 0.23217161 -0.34166938 0.0796615 0.30039698 -0.14139526
0.28530952 0.28186044 0.1315625 -0.12091026 0.39790186 -0.018787585 -0.21236527 -0.052575238
0.33171138 -0.19187976 0.010122444 0.2610308 0.26386032 -0.17255305 0.20927495 0.32404158
-0.14534307 0.29839012 0.35679936 0.24439 -0.34642783 -0.09826428 -0.13271974 0.3718424
0.16718838 0.26377976 -0.18599482 0.18319541 0.28587997 0.3742025 -0.12279532 0.2097949
-0.35777295 -0.3559015 -0.23131506 -0.15170017 -0.102744825 0.3603941 0.29795507 0.31868717
-0.4208149 -0.26497462 -0.3309441 0.33309713 0.2548374 0.17347398 -0.41343316 -0.0006426558
-0.29159793 -0.09061794 0.107416116 -0.30307436 -0.3304181 0.083878465 -0.24313417 -0.25349748
-0.09705107 0.12007652 -0.08647417 -0.2471701 -0.09144641 -0.20215721 -0.28622025 0.05386364
-0.5013993 0.19063039 0.055951566 0.33255267 0.37329033 0.31521523 -0.34765857 0.21692821
-0.3454326 -0.25325355 0.16599895 0.2774117 0.31703514 -0.3334508 0.32271785 0.39148867
0.3824894 0.16475038 0.3684048 -0.32519922 -0.25200263 -0.09896074 -0.12101168 -0.2459075
0.18846075 -0.23646688 -0.38588974 -0.19284728 0.27300277 -0.1846813 -0.17322338 -0.4544468
-0.47003227 -0.006285618 0.32531798 0.30494246 0.26172167 0.29971978 -0.37657997 0.038710654
0.16506736 -0.10301604 0.61245984 -0.05513706 -0.3214857 -0.45637384 0.20391408 0.17980246

fc2.bias f4 [10]
00000000: 1688 7c3e 1d54 0abf 15d1 c73e 61fd f53d
00000010: bf23 9b3d e67c 14be 929e c73e 2b7b 64be
00000020: cf13 45be 4152 6ebe
0.24661288 -0.54034597 0.39026704 0.12011219 0.075751774 -0.1450077 0.38988167 -0.2231261
-0.19245838 -0.23273565
